…
eam_buffer=False, task=detect, time=None, tracker=botsort.yaml, translate=0.1, val=True, verbose=True, vid_stride=1, visualize=False, warmup_bias_lr=0.1, warmup_epochs=3.0, warmup_momentum=0.8, weight_decay=0.0005, workers=8, workspace=None
[2026-03-23 13:51:50,028: WARNING/ForkPoolWorker-2] Overriding model.yaml nc=80 with nc=4
[2026-03-23 13:51:50,028: WARNING/ForkPoolWorker-2] 
                   from  n    params  module                                       arguments                     
[2026-03-23 13:51:50,029: WARNING/ForkPoolWorker-2]   0                  -1  1       464  ultralytics.nn.modules.conv.Conv             [3, 16, 3, 2]                 
[2026-03-23 13:51:50,029: WARNING/ForkPoolWorker-2]   1                  -1  1      4672  ultralytics.nn.modules.conv.Conv             [16, 32, 3, 2]                
[2026-03-23 13:51:50,030: WARNING/ForkPoolWorker-2]   2                  -1  1      7360  ultralytics.nn.modules.block.C2f             [32, 32, 1, True]             
[2026-03-23 13:51:50,031: WARNING/ForkPoolWorker-2]   3                  -1  1     18560  ultralytics.nn.modules.conv.Conv             [32, 64, 3, 2]                
[2026-03-23 13:51:50,032: WARNING/ForkPoolWorker-2]   4                  -1  2     49664  ultralytics.nn.modules.block.C2f             [64, 64, 2, True]             
[2026-03-23 13:51:50,033: WARNING/ForkPoolWorker-2]   5                  -1  1     73984  ultralytics.nn.modules.conv.Conv             [64, 128, 3, 2]               
[2026-03-23 13:51:50,037: WARNING/ForkPoolWorker-2]   6                  -1  2    197632  ultralytics.nn.modules.block.C2f             [128, 128, 2, True]           
[2026-03-23 13:51:50,039: WARNING/ForkPoolWorker-2]   7                  -1  1    295424  ultralytics.nn.modules.conv.Conv             [128, 256, 3, 2]              
[2026-03-23 13:51:50,043: WARNING/ForkPoolWorker-2]   8                  -1  1    460288  ultralytics.nn.modules.block.C2f             [256, 256, 1, True]           
[2026-03-23 13:51:50,045: WARNING/ForkPoolWorker-2]   9                  -1  1    164608  ultralytics.nn.modules.block.SPPF            [256, 256, 5]                 
[2026-03-23 13:51:50,045: WARNING/ForkPoolWorker-2]  10                  -1  1         0  torch.nn.modules.upsampling.Upsample         [None, 2, 'nearest']          
[2026-03-23 13:51:50,046: WARNING/ForkPoolWorker-2]  11             [-1, 6]  1         0  ultralytics.nn.modules.conv.Concat           [1]                           
[2026-03-23 13:51:50,048: WARNING/ForkPoolWorker-2]  12                  -1  1    148224  ultralytics.nn.modules.block.C2f             [384, 128, 1]                 
[2026-03-23 13:51:50,048: WARNING/ForkPoolWorker-2]  13                  -1  1         0  torch.nn.modules.upsampling.Upsample         [None, 2, 'nearest']          
[2026-03-23 13:51:50,048: WARNING/ForkPoolWorker-2]  14             [-1, 4]  1         0  ultralytics.nn.modules.conv.Concat           [1]                           
[2026-03-23 13:51:50,050: WARNING/ForkPoolWorker-2]  15                  -1  1     37248  ultralytics.nn.modules.block.C2f             [192, 64, 1]                  
[2026-03-23 13:51:50,050: WARNING/ForkPoolWorker-2]  16                  -1  1     36992  ultralytics.nn.modules.conv.Conv             [64, 64, 3, 2]                
[2026-03-23 13:51:50,050: WARNING/ForkPoolWorker-2]  17            [-1, 12]  1         0  ultralytics.nn.modules.conv.Concat           [1]                           
[2026-03-23 13:51:50,052: WARNING/ForkPoolWorker-2]  18                  -1  1    123648  ultralytics.nn.modules.block.C2f             [192, 128, 1]                 
[2026-03-23 13:51:50,054: WARNING/ForkPoolWorker-2]  19                  -1  1    147712  ultralytics.nn.modules.conv.Conv             [128, 128, 3, 2]              
[2026-03-23 13:51:50,054: WARNING/ForkPoolWorker-2]  20             [-1, 9]  1         0  ultralytics.nn.modules.conv.Concat           [1]                           
[2026-03-23 13:51:50,058: WARNING/ForkPoolWorker-2]  21                  -1  1    493056  ultralytics.nn.modules.block.C2f             [384, 256, 1]                 
[2026-03-23 13:51:50,073: WARNING/ForkPoolWorker-2]  22        [15, 18, 21]  1    752092  ultralytics.nn.modules.head.Detect           [4, 16, None, [64, 128, 256]] 
[2026-03-23 13:51:50,331: WARNING/ForkPoolWorker-2] Model summary: 130 layers, 3,011,628 parameters, 3,011,612 gradients, 8.2 GFLOPs
[2026-03-23 13:51:50,349: WARNING/ForkPoolWorker-2] Transferred 319/355 items from pretrained weights
[2026-03-23 13:51:50,352: WARNING/ForkPoolWorker-2] Freezing layer 'model.22.dfl.conv.weight'
[2026-03-23 13:51:50,354: WARNING/ForkPoolWorker-2] [34m[1mtrain: [0mFast image access ✅ (ping: 0.0±0.0 ms, read: 575.8±154.1 MB/s, size: 10.4 KB)
…
